…
[INFO] Found label classes: ['CentralApnea', 'Hypopnea', 'Hypopnea;ObstructiveApnea', 'MixedApnea', 'Normal', 'ObstructiveApnea']
[INFO] Binary mapping:
       Normal -> 0
       CentralApnea -> 1 (event)
       Hypopnea -> 1 (event)
       Hypopnea;ObstructiveApnea -> 1 (event)
       MixedApnea -> 1 (event)
       ObstructiveApnea -> 1 (event)
[INFO] Train segments: 298840
[INFO] Val segments:   64120
[INFO] Test segments:  64595
[INFO] Train negatives (0): 254372
[INFO] Train positives (1): 44468
[INFO] pos_weight = 5.720338220743006
[INFO] Model:
SleepApneaCNN(
  (block1): Sequential(
    (0): Conv2d(3, 32, kernel_size=(5, 5), stride=(1, 1), padding=(2, 2))
    (1): BatchNorm2d(32, eps=1e-05, momentum=0.1, affine=True, track_running_stats=True)
    (2): ReLU()
    (3): MaxPool2d(kernel_size=2, stride=2, padding=0, dilation=1, ceil_mode=False)
  )
  (block2): Sequential(
    (0): Conv2d(32, 64, kernel_size=(3, 3), stride=(1, 1), padding=(1, 1))
    (1): BatchNorm2d(64, eps=1e-05, momentum=0.1, affine=True, track_running_stats=True)
    (2): ReLU()
    (3): MaxPool2d(kernel_size=2, stride=2, padding=0, dilation=1, ceil_mode=False)
  )
  (block3): Sequential(
    (0): Conv2d(64, 128, kernel_size=(3, 3), stride=(1, 1), padding=(1, 1))
    (1): BatchNorm2d(128, eps=1e-05, momentum=0.1, affine=True, track_running_stats=True)
    (2): ReLU()
    (3): Conv2d(128, 128, kernel_size=(3, 3), stride=(1, 1), padding=(2, 2), dilation=(2, 2))
    (4): BatchNorm2d(128, eps=1e-05, momentum=0.1, affine=True, track_running_stats=True)
    (5): ReLU()
    (6): AdaptiveAvgPool2d(output_size=(1, 1))
  )
  (classifier): Sequential(
    (0): Flatten(start_dim=1, end_dim=-1)
    (1): Linear(in_features=128, out_features=64, bias=True)
    (2): ReLU()
    (3): Dropout(p=0.5, inplace=False)
    (4): Linear(in_features=64, out_features=1, bias=True)
  )
)

=== Epoch 1/5 ===
[Epoch 1] Batch 100/9339 - Loss: 1.5588
[Epoch 1] Batch 200/9339 - Loss: 0.8963
[Epoch 1] Batch 300/9339 - Loss: 1.0602
[Epoch 1] Batch 400/9339 - Loss: 1.0717
[Epoch 1] Batch 500/9339 - Loss: 1.4229
[Epoch 1] Batch 600/9339 - Loss: 1.4906
[Epoch 1] Batch 700/9339 - Loss: 1.2482
[Epoch 1] Batch 800/9339 - Loss: 1.5315
[Epoch 1] Batch 900/9339 - Loss: 1.2041
…
